app/src/main/assets/dummy.tflite (tflite, 1720 bytes, 4 tensors)

model/conv2d/Conv2D/ReadVariableOp f4 [3, 2, 2, 3]
0.24889927 0.061349366 -0.5017482 -0.07617366 0.21988966 0.20674366 0.06271518 -0.45462492
0.28453004 -0.41968364 -0.4492802 0.11225786 0.16726223 0.45878637 -0.49262643 -0.040790398
0.23327717 -0.2617237 -0.053704835 -0.23608479 -0.092931256 -0.33138844 0.22377595 0.10605877
-0.095816724 -0.004413941 -0.42595685 0.1543291 -0.32839784 -0.14790247 0.42752162 0.36208272
0.3445993 -0.33596933 0.35612842 -0.25226673
00000000: 73df 7e3e 7949 7b3d 9272 00bf f000 9cbd
00000010: c12a 613e 9cb4 533e d170 803d 99c4 e8be
00000020: ecad 913e c6e0 d6be 0e08 e6be 73e7 e53d
00000030: ca46 2b3e 0ce6 ea3e 8839 fcbe d513 27bd
00000040: 36e0 6e3e a600 86be 9af9 5bbd 36c0 71be
00000050: be52 bebd bfab a9be 8625 653e 5735 d93d
00000060: 8f3b c4bd d2a2 90bb 0417 dabe 7308 1e3e
00000070: c323 a8be bf73 17be 1de4 da3e e862 b93e
00000080: 526f b03e 2c04 acbe 7756 b63e 1b29 81be

model/conv2d/Conv2D_bias f4 [3]
-0.0049520414 -0.0048233857 -0.0049125147
00000000: bc44 a2bb 7e0d 9ebb 29f9 a0bb

model/conv2d_transpose/BiasAdd/ReadVariableOp f4 [3]
0.004901487 0.004912063 0.0049842624
00000000: a79c a03b 5ff5 a03b 0653 a33b

model/conv2d_transpose/conv2d_transpose/ReadVariableOp_transposed f4 [3, 2, 2, 3]
0.14616397 0.07386937 -0.3094262 -0.45495668 -0.23820394 -0.063987195 -0.028839806 -0.21525936
-0.18463619 0.41077983 0.015918702 0.26803994 -0.14185989 0.014161421 -0.37054265 -0.21987286
-0.23478249 -0.027672214 -0.045058034 0.40115172 0.2941176 0.045802806 -0.2615949 0.021660984
0.28611225 0.2675816 -0.41096094 -0.09276113 -0.34040043 -0.30760047 -0.3696943 -0.3355323
0.21174386 -0.0939398 0.29581046 -0.11277468
00000000: 02ac 153e d348 973d 1c6d 9ebe 15f0 e8be
00000010: bceb 73be b80b 83bd 7541 ecbc f36c 5cbe
00000020: 4511 3dbe bc51 d23e f067 823c 883c 893e
00000030: b843 11be 4e05 683c c4b7 bdbe 5a26 61be
00000040: d26a 70be d7b0 e2bc c68e 38bd c263 cd3e
00000050: 9596 963e b99b 3b3d c4ef 85be 6072 b13c
00000060: 4e7d 923e 7500 893e 7969 d2be 8cf9 bdbd
00000070: f748 aebe cf7d 9dbe 9248 bdbe e4ca abbe
00000080: 62d3 583e 8363 c0bd 7874 973e 69f6 e6bd
